heartDisease/heartDisease.tflite (tflite, 118300 bytes, 12 tensors)

sequential/dense/BiasAdd/ReadVariableOp f4 [100]
000000 f9 c1 85 bc 00 00 00 00 48 79 1f 3c a5 37 90 3b
       -0.016327845 0.0 0.009733506 0.0044011646
000010 27 dd b4 bc c8 93 23 bc 25 42 53 bb 35 8c 0f 3c
       -0.02207811 -0.009983964 -0.003223547 0.008761455
000020 c0 14 af b9 3a 09 db bc 46 f4 59 3b 2c 4d cf bc
       -0.0003339406 -0.026737798 0.003325717 -0.025305353
000030 b2 ad 12 3d 2e 68 be 3c 97 06 b9 bc 3e be 34 3c
       0.03581018 0.023243036 -0.02258615 0.011031685
000040 6a 18 af 3c b6 71 de bc 0a 91 4d bc 12 72 48 3c
       0.021373946 -0.027153831 -0.012546787 0.012234228
000050 e9 40 87 bc 29 3f 00 bc 00 00 00 00 d1 08 cc bc
       -0.016510444 -0.007827559 0.0 -0.024906548
000060 3f 29 67 ba 97 5d 0d 3d 87 e9 a9 3c 5f 4c 0e bd
       -0.0008818097 0.034513082 0.020741237 -0.034740802
000070 1d 2f bd ba a5 63 dd 3a 00 00 00 00 31 9a 85 3d
       -0.0014433597 0.0016890658 0.0 0.0652355
000080 94 95 86 bc 48 af eb 3b 4a 1c 50 bc 16 91 4a bd
       -0.016428746 0.007192526 -0.012702057 -0.04945477
000090 ee 60 4a 3d 72 08 28 3d 11 fd d6 bc 00 00 00 00
       0.049408846 0.04102368 -0.026243718 0.0
0000a0 c0 86 c3 3a 60 eb 0c bd 24 69 25 3c 80 f0 cb bc
       0.0014917478 -0.03440416 0.010095868 -0.024894953
0000b0 e2 78 e9 bc bb 65 ec 3c 13 ca a0 3b e4 07 06 bc
       -0.028500024 0.028857103 0.0049069016 -0.008180592
0000c0 e7 ed 4b 3c 81 c1 0f 3c c6 4b 7e 3d dc 93 b8 bc
       0.012446857 0.008774162 0.062083982 -0.022531442
0000d0 03 ac 27 bc b9 22 5f 3d 49 2d e0 3c b1 52 53 bc
       -0.010233882 0.054476473 0.027365344 -0.012898133
0000e0 3d 78 a9 3c ef a2 09 3c 7c aa 88 bc 14 45 2b bc
       0.020687217 0.008400663 -0.016682856 -0.010453481
0000f0 74 7d 6d bc ed 33 80 bc be b1 72 3d 58 76 d2 3c
       -0.014495242 -0.01564976 0.05925154 0.025691196
000100 c5 ae 56 3d 90 e5 82 3c fa 2f 74 3c ca a8 44 bb
       0.052412767 0.015978605 0.014904017 -0.0030007833
000110 56 3c c5 3c fa 3e b6 3a 1b 7c 82 39 39 b5 9f bc
       0.024076622 0.0013904267 0.00024887998 -0.019495593
000120 08 ad 86 bc 21 93 28 bb 19 3f cf 3c f3 c5 af bc
       -0.01643993 -0.0025722461 0.025298642 -0.021456694
000130 04 9e b8 bc 1c e1 6f b9 00 00 00 00 eb 6d 91 bc
       -0.022536285 -0.00022876676 0.0 -0.017752608
000140 46 f8 e0 3c e7 ef 79 bc 6d c3 81 3c 7d 3b 01 bb
       0.027462136 -0.015254951 0.015840257 -0.0019719296
000150 5e f3 ac 3c 00 00 00 00 8c 5a c0 bb 25 1a 3a bc
       0.02111214 0.0 -0.005870169 -0.011358772
000160 60 af 16 3c 89 79 90 bb 50 b0 35 3c fe 0e a2 bc
       0.009197086 -0.0044090194 0.011089399 -0.01978254
000170 78 e1 05 bc 0a 0c 42 bc c2 00 c1 bc 0a 9a 47 3c
       -0.008171432 -0.011843691 -0.023559932 0.012182722
000180 21 5d 29 bd 58 9d 03 3d a5 3f 91 3b 99 da b8 3c
       -0.04134858 0.032132477 0.004432636 0.022565173

sequential/dense_5/BiasAdd/ReadVariableOp f4 [2]
000000 56 73 92 3b 42 73 92 bb
       0.0044693155 -0.004469306

sequential/dense_4/BiasAdd/ReadVariableOp f4 [40]
000000 a4 55 d3 bb 95 c9 14 bc bc 12 a8 3c ef ad 07 3d
       -0.006449418 -0.009081264 0.020516746 0.03312486
000010 22 f2 99 3c 4c c3 b7 3c 54 1d f2 3b c5 01 24 bc
       0.018792216 0.022431992 0.00738875 -0.0100101875
000020 10 0c 8d bb 02 7f 23 3d e6 a4 b2 bc b4 70 24 3c
       -0.0043044165 0.039916046 -0.021807145 0.010036636
000030 93 70 66 3d e1 1d 49 3d cb 7c 8a 3b a1 a0 11 bc
       0.056259703 0.04910076 0.0042263023 -0.008888395
000040 5e f3 0b 3d e1 d4 4d 3d c3 0f 29 3c 43 b5 7b bc
       0.03416764 0.050251845 0.010318699 -0.01536304
000050 26 3b 31 3c 0a 98 06 3d ce 73 11 3d a6 74 46 3c
       0.010817325 0.03285984 0.03551083 0.012112772
000060 d9 b2 cc 3b c0 8c e1 3c 1c 69 e5 3c 45 78 5c 3d
       0.0062469062 0.027532935 0.028004222 0.053825635
000070 8c 46 0e 3b 63 3a 4c bc d7 89 40 3d 5a 77 04 3d
       0.002170953 -0.012465092 0.047006454 0.032340385
000080 e4 8f af 3c 98 e8 48 bc 3c 57 96 3a c5 c8 09 3c
       0.021430917 -0.012262486 0.001147009 0.008409684
000090 ee 47 95 3c 51 c6 01 bd ba e0 d6 3c a9 70 91 3c
       0.018222775 -0.03168327 0.026230205 0.017753916

sequential/dense_3/BiasAdd/ReadVariableOp f4 [50]
000000 d5 eb 0c bb e8 1e a6 bc 00 00 00 00 a5 47 7c 3c
       -0.0021502872 -0.02027841 0.0 0.015397941
000010 03 00 b4 3c 29 34 26 bc 9b ee d8 3c d5 54 d4 3c
       0.021972662 -0.010144272 0.026480963 0.025919357
000020 b5 3b c5 3c 55 b5 04 bd 8f 9d ef 3c 53 59 47 bc
       0.024076322 -0.032399494 0.029249934 -0.012167293
000030 41 34 d8 bc 7a 55 12 bd d9 55 83 3c 8d a5 8e 3c
       -0.026392104 -0.035726048 0.016032146 0.017412925
000040 fc b2 18 bc 8d bc 99 b9 ab 4f 0d 3d 24 22 7c bc
       -0.009320017 -0.00029322915 0.034499805 -0.015388999
000050 10 30 81 ba b0 81 0b 3d 2f 22 3b bc 68 c5 56 3d
       -0.0009856243 0.034059227 -0.011421724 0.052434355
000060 d8 13 cc 3b f1 14 35 3d c6 6d ad bc 07 f5 91 3b
       0.0062279515 0.044209424 -0.021170508 0.0044542584
000070 b9 dd 8c 3d a9 14 74 3c 0f 99 19 3c e4 a7 09 3d
       0.06878228 0.014897504 0.009374871 0.03360738
000080 75 3e f2 39 2c 35 1d 3c da f8 fe bb 84 92 1b bc
       0.0004620437 0.009595197 -0.0077811303 -0.009495381
000090 09 45 b9 3c 64 81 60 bc 93 22 a0 bc 89 5f e8 bb
       0.022615926 -0.013702724 -0.019547736 -0.007091467
0000a0 a7 3a 21 3b 62 df e9 3c 09 b2 70 3c db ea c1 3c
       0.002460161 0.0285489 0.014690884 0.023671558
0000b0 f8 a9 ae 3c 3f b6 90 bc f4 bd 73 bb 04 6e de bb
       0.021321282 -0.017665027 -0.0037192078 -0.006788017
0000c0 87 45 aa 3c 35 f9 89 3c
       0.020785106 0.016842464

sequential/dense_2/BiasAdd/ReadVariableOp f4 [100]
000000 8e 92 79 3c 04 85 c7 3b 5b d4 0e 3d 1d 57 90 bc
       0.015232695 0.0060888547 0.034870487 -0.017619664
000010 c4 a1 d3 3c 5a b3 c6 3c 8e e1 20 bc 76 e6 a3 bb
       0.025833972 0.024255443 -0.009819401 -0.0050018383
000020 71 9e 7c bb e3 a5 99 3b dc c4 67 3a a7 2b b4 3c
       -0.0038546587 0.0046889647 0.0008841285 0.021993471
000030 07 73 f0 3c 02 5f bc bc 48 66 06 bd 82 ee 82 3c
       0.029351724 -0.022994522 -0.032812387 0.01598287
000040 5b 5f dc bb 72 f6 27 bc 1b 4b a6 bb 35 98 60 bb
       -0.0067252344 -0.010251628 -0.0050748712 -0.003427041
000050 33 8d ac bc cb a7 bf 3c c0 fa b5 3c 8f a7 73 3c
       -0.021063423 0.02339544 0.022214293 0.014871492
000060 14 6d 19 3d 72 85 84 3c ff ea f6 3c f3 8f ab 3c
       0.03745754 0.016176913 0.030141352 0.020942664
000070 1a 8e b5 bb 21 a4 9c bc 81 5e d9 ba 02 c2 20 bd
       -0.0055406215 -0.019121232 -0.001658395 -0.03924752
000080 44 57 61 ba 10 21 99 3c 43 9d 4b 3c c8 96 dc bb
       -0.00085960724 0.018692523 0.012427631 -0.0067318417
000090 af 26 90 3c d3 05 3d 3c ea d1 9f 3a 21 78 a4 3c
       0.01759657 0.011537033 0.0012193297 0.020076813
0000a0 7f 29 eb 3c 90 2f e6 3a cc e1 85 3c be a1 8f 3c
       0.02870631 0.0017561782 0.01634302 0.01753318
0000b0 9c 3a 9b 3b c4 f0 ab bc e9 e6 41 3d 69 b4 da 3a
       0.0047372114 -0.02098883 0.047339354 0.0016685846
0000c0 0e be 93 bc 85 a8 af 3c 56 3d b2 3c 77 0d 94 3b
       -0.018034961 0.021442661 0.021757763 0.0045182067
0000d0 da 55 0b 3c b3 a7 5d bc bd 25 95 3b 6b 99 bd bb
       0.008504355 -0.013528752 0.004551618 -0.005786111
0000e0 e5 bc eb 3b f5 fa 97 3c d2 8b f3 3c 8c cc 63 bb
       0.007194149 0.018552283 0.029729757 -0.003475937
0000f0 56 d7 48 bc 93 59 f2 bb 96 40 51 3c 23 af 79 bb
       -0.012258371 -0.007395932 0.012771746 -0.0038098774
000100 a4 99 e8 bb ee 88 7e 3c af 61 18 bc 93 ed f5 3c
       -0.0070983935 0.015535576 -0.009300633 0.03002051
000110 4a ea 32 3d 39 3a d5 3c b8 7c f3 3b 98 98 ce bb
       0.043680467 0.02602874 0.007430639 -0.0063048117
000120 15 0a ef bb 34 c9 e9 3c 76 8e ba bb 27 49 ba bc
       -0.007294903 0.028538324 -0.005693252 -0.02273996
000130 ba 34 d8 3c af 9f 7e 3c 6c 92 23 bc 5d 90 a5 3c
       0.02639233 0.015541001 -0.00998364 0.02021044
000140 f5 9b b0 bc a2 72 10 bd 43 38 de 3c 50 72 18 3a
       -0.021558741 -0.035265572 0.027126437 0.0005815374
000150 99 76 fa 3c 00 00 00 00 1a 78 f4 3a 41 2d 2a 3c
       0.03057413 0.0 0.0018651516 0.010386766
000160 4f cc 8b bc cf 79 02 bc d1 0c b3 bb 60 e6 92 3c
       -0.017065195 -0.007963612 -0.0054641743 0.017932117
000170 89 c0 80 bc f6 db c7 bb 08 3f c4 bb 84 5e 9f 3b
       -0.015716808 -0.0060992194 -0.005988959 0.004863562
000180 7c a3 f6 bc 2d 7c a0 3c 8b 5b c9 3c f8 8d e1 3b
       -0.030107252 0.019590462 0.024579784 0.006883379

sequential/dense_1/BiasAdd/ReadVariableOp f4 [100]
000000 58 c7 84 3c a9 5c 2b bb 10 a5 5e 3c 9c c2 ce bb
       0.016208336 -0.002614776 0.013589159 -0.0063098203
000010 8f d5 32 3c 00 00 00 00 4b 29 39 bb 90 2a eb 3c
       0.010915174 0.0 -0.0028253372 0.028706819
000020 c4 a4 e8 bb 83 5b 59 3c 48 db db bc 11 f5 59 3c
       -0.0070997197 0.013266447 -0.02683796 0.013303057
000030 46 fc a0 3c ed 82 74 3c 32 14 8c bc 16 26 97 3c
       0.019651543 0.014923793 -0.017099474 0.018450778
000040 fb 61 39 3c e3 64 c3 3b 3b 1e 13 bc 5b a0 f4 bb
       0.011314864 0.0059629544 -0.0089793755 -0.007465405
000050 1d ab 5d 3c 16 f0 36 3c b6 ee 63 bc 18 fd fc bb
       0.013529566 0.011165639 -0.013911894 -0.007720601
000060 5e b4 23 bb e5 04 74 3c 39 01 3f 3d 47 a1 06 3b
       -0.0024979333 0.014893745 0.046632025 0.0020542906
000070 48 0d 17 3b 17 0d dc 3c 0e e7 ab bb 83 b4 01 bc
       0.0023048688 0.02686171 -0.0052460497 -0.0079165725
000080 9b 7f ce bb ec 28 63 3c 94 52 85 bc 9e a0 de b9
       -0.006301833 0.013864737 -0.016274728 -0.0004246281
000090 01 50 dc 3b 00 00 00 00 de 98 2c 3c 00 00 00 00
       0.0067234044 0.0 0.010534493 0.0
0000a0 c5 99 6c 3c 46 c0 ca 3c 49 a6 81 3c 69 c4 5b 3a
       0.014440958 0.024749886 0.015826361 0.00083834544
0000b0 91 b1 06 3d f1 86 98 3c 00 00 00 00 bf 5d 1e bc
       0.032884184 0.018619033 0.0 -0.0096659055
0000c0 8f 54 fd 3a ac 11 3a 3c 7d af 8c b8 8a 2e 1e 3c
       0.0019327569 0.011356752 -6.7084075e-05 0.00965465
0000d0 c1 ff 75 3c 93 3e 02 3c 7e 51 c1 bb da 34 7d 3c
       0.01501459 0.007949489 -0.005899607 0.015454495
0000e0 98 fe ec bb 55 d0 07 bc 37 8d 06 bd b7 b8 9f 3c
       -0.0072324984 -0.008289416 -0.032849517 0.019497259
0000f0 e6 29 95 3b f2 13 0d bc d7 7b 06 3c 04 3c a6 3c
       0.004552114 -0.008610712 0.008208237 0.02029229
000100 16 8b be bc ba e6 bf bb 3a 3c 48 3c c8 bf 95 b8
       -0.02325968 -0.005856362 0.01222139 -7.140596e-05
000110 60 c6 9e ba 7c d2 e9 3c b3 13 04 bc 8d ec 0a 3c
       -0.0012113564 0.02854275 -0.008061337 0.00847925
000120 fb 25 62 3c c7 0c a3 bc e8 23 a1 bc 1c 42 76 3c
       0.013803001 -0.019903554 -0.019670442 0.01503041
000130 00 00 00 00 df ed d3 bb 03 91 c6 3c d1 24 79 bc
       0.0 -0.0064675654 0.024239069 -0.015206532
000140 02 ca 0c 3b 00 00 00 00 3c 1b 3c 3c 09 fe b7 bc
       0.002148271 0.0 0.011481103 -0.02246
000150 ed 1b 37 bc a2 b3 f2 3b aa bf 98 ba d3 a6 9b bc
       -0.011176092 0.007406668 -0.00116538 -0.019000446
000160 85 6e 86 bb e9 b7 82 bc 7b 0b c5 3b 36 9f ab 3c
       -0.0041025304 -0.015956836 0.0060133315 0.020949941
000170 04 cc 1a 3c d0 c6 66 3c 5f 3d ea 3c 31 75 8c bc
       0.009448055 0.0140854865 0.028593717 -0.017145725
000180 23 0f 28 3d 95 c4 9c b9 9f 42 10 3d 00 00 00 00
       0.04103006 -0.00029901104 0.035219785 0.0

sequential/dense/MatMul f4 [100, 13]
000000 95 78 26 3d 95 95 e3 3d 14 9d f4 3d a8 2a b7 3d
       0.04064234 0.11112515 0.11944023 0.08943683
000010 4b f2 28 3e de 78 c4 bc 10 f7 f9 bd 0e 8f e5 3d
       0.16498677 -0.023983415 -0.122053266 0.11208926
000020 ed 23 57 be 16 0f 86 be 06 f8 2b 3e 72 ab 82 bb
       -0.21009798 -0.26183385 0.16793832 -0.003987723
000030 2b dc 00 3a 4a 53 0f be c4 b4 30 be c5 a1 35 be
       0.000491562 -0.13996616 -0.17256457 -0.17737491
000040 9e 3d 0f be c6 ee 1d be 10 fb 78 3c 18 11 f8 bc
       -0.13988349 -0.15423116 0.015196577 -0.030281588
000050 e0 7a 40 3c 0c f9 3c be c5 50 2d be 59 c9 dd bd
       0.011748046 -0.18454379 -0.16925342 -0.1082942
000060 e0 e5 11 3d 9e e9 06 3e f8 a7 d4 3d 58 93 25 be
       0.035619617 0.13175055 0.103836 -0.16169488
000070 9c cb f9 bc 38 e5 34 3e ec 3a 19 3e 01 28 5c 3d
       -0.030492596 0.17665565 0.14963883 0.05374909
000080 74 f0 6a 3e 3a 3b 56 be 92 a2 d1 3d 3c 6d 83 bc
       0.22943288 -0.2092103 0.10236086 -0.016043298
000090 0b 7e 13 3c e5 59 8b 3e 4a 50 63 3e 35 7e e7 bd
       0.009002219 0.27217022 0.22198597 -0.11303369
0000a0 21 d9 55 be 3f 17 6f 3e d3 3b 11 3d 90 02 99 bd
       -0.2088361 0.23348711 0.035457443 -0.07471192
0000b0 2e 4f 6e 3e 46 61 51 3e 30 66 58 3e e8 f8 07 ba
       0.23272392 0.20447263 0.21132731 -0.0005186931
0000c0 42 5d 1a be 6f 29 25 3d 34 6c 0b be e0 c9 ad bc
       -0.15074638 0.040322717 -0.13615495 -0.021214426
0000d0 0e cc 85 3e 24 fb e1 3d 8a f9 b1 3c fd a1 d6 bd
       0.26132244 0.110342294 0.021725435 -0.104801156
0000e0 c3 23 40 3e 94 54 81 be cc 35 05 3d f7 ff 95 bd
       0.18763642 -0.2525984 0.032522008 -0.07324212
0000f0 cf 89 9b 3d ea fb 82 be 54 12 00 be f5 00 ab 3c
       0.07594644 -0.2558282 -0.12506992 0.02087448
000100 69 26 d7 3d b8 72 0b 3e c1 ac ca 3d 71 e1 90 bd
       0.10505373 0.1361798 0.098962314 -0.070742495
000110 d6 7f 26 3e c1 47 84 bd 1b af ca 3d 5d eb 93 bb
       0.16259703 -0.064589985 0.0989668 -0.0045141415
000120 ae cf 1c 3e 88 c8 51 3d d8 93 94 be a9 fa 9d bd
       0.15313599 0.051216632 -0.29019046 -0.07713825
000130 ed b0 b8 3d 44 10 41 bd b1 6d 3a 3e 70 a4 6d be
       0.09018121 -0.047134653 0.18205906 -0.23207259
000140 cf 95 ec bc f3 eb 06 be 7e bd 67 be c2 3b aa 3d
       -0.028880028 -0.13175945 -0.2263088 0.08312179
000150 6f 3e 49 3e b6 5d a5 3d 46 fc 7a 3d 17 fe 3b 3e
       0.19652723 0.080745146 0.061275743 0.18358646
000160 61 9e 5c be 9a 86 ef bc 69 33 0d 3e f0 da 5f bc
       -0.21544792 -0.029238988 0.13789143 -0.013663039
000170 72 67 0f be 4a 3d ab bd 83 3f c3 3d b3 c7 b9 3d
       -0.14004305 -0.08361299 0.09533598 0.09071293
000180 7e 7a 58 3d c0 c6 e1 bd bb 63 84 3d 6c 75 26 3e
       0.052851193 -0.11024237 0.064643346 0.1625573
000190 b6 61 e1 3e 81 78 a7 bd e1 99 00 3e b9 04 02 3d
       0.4401986 -0.08177281 0.125587 0.031742785
0001a0 c3 5f 66 3d ad 02 60 bd 1e 32 98 bd 26 f4 22 3e
       0.05624367 -0.05469005 -0.07431434 0.15913448
0001b0 46 d0 20 bd 64 a1 4e 3e 1c c8 0f bd 80 b0 55 3d
       -0.039261125 0.20178753 -0.03510295 0.052170277
0001c0 64 ba 16 3d 35 f9 9e be ee f6 66 3e d8 20 d4 3d
       0.03679885 -0.31049505 0.22555134 0.10357827
0001d0 f3 66 37 be 25 43 56 be 39 13 2d 3e b8 a5 16 3e
       -0.17910366 -0.20924051 0.16901864 0.14711654
0001e0 cc bb ae 3c 2f 1f 7b be f7 04 b7 bd eb ff 0d 3e
       0.021329783 -0.24523614 -0.08936494 0.13867156
0001f0 47 28 cd bd d6 34 23 3e 28 48 bb be 11 93 41 3d
       -0.10017448 0.15938124 -0.36578488 0.047259394
000200 04 50 7c 3e 35 61 08 3e 74 6e 4c be c6 7f 67 3d
       0.24639899 0.13318332 -0.1996401 0.05651834
000210 d1 51 69 3d e0 05 49 3e 5b 43 04 be 96 c1 43 be
       0.05696279 0.19631147 -0.12916319 -0.19116816
000220 a1 f1 12 3e 88 87 e3 bd 58 a8 85 be 49 1e ef 3d
       0.14349987 -0.11109835 -0.26105 0.11675698
000230 7b 37 93 3b ed ed 77 3e e5 ee 49 bd ed e2 1e be
       0.004492698 0.24211855 -0.049300093 -0.15516253
000240 49 05 9f 3d ed 67 01 bd 9f 74 07 be ab 2b 9c bd
       0.0776468 -0.031593252 -0.13228081 -0.076255165
000250 59 7a 81 3d 36 3b 26 3e ca 20 19 be 64 06 dd 3d
       0.06322164 0.16233525 -0.14953914 0.107922345
000260 c3 2b 40 be 92 6e 15 be a6 e4 dd 3d 63 0b 77 bd
       -0.18766694 -0.1459296 0.10834627 -0.060313594
000270 07 25 d9 bc ac 9c c4 bb e5 45 55 be fe 23 38 3e
       -0.026506914 -0.006000122 -0.20827444 0.1798248
000280 1e fc 94 3d d3 b9 94 3d cd 29 bb 3c db 34 56 be
       0.0727465 0.07262006 0.02284708 -0.209186
000290 d1 e5 44 be a8 ee b1 3e 4b 88 0b bd 41 bf fb bd
       -0.19228293 0.34752393 -0.034065526 -0.12292338
0002a0 33 26 3b 3e 87 6b 89 be d2 e5 97 bb 10 72 27 be
       0.1827629 -0.2683985 -0.004635551 -0.16352105
0002b0 62 74 72 3c 15 8a b6 bb 7c 0d 21 be 11 e7 ec bd
       0.014798256 -0.00557066 -0.157278 -0.1156751
0002c0 4e 59 d0 3d 99 53 bf 3d 24 17 68 bd c0 7e 23 bc
       0.101732835 0.09342117 -0.056662694 -0.00997895
0002d0 fc a6 80 3e 10 44 20 3e 20 05 0a bc fd 37 fd 3d
       0.251274 0.15650964 -0.008424073 0.123641945
0002e0 01 93 a9 bd 5a e9 28 3d c2 cd 9e ba 99 b6 ea bd
       -0.08279992 0.041238166 -0.0012115764 -0.11460609
0002f0 17 6c 7c bd 0b 8a 12 3e 62 03 98 bd 5e 6f b6 bd
       -0.06162652 0.14310472 -0.0742252 -0.0890796
000300 30 af bf 3d 4e 11 b0 be cb 17 a2 be e4 95 64 be
       0.09359586 -0.34388202 -0.31658778 -0.22322804
000310 7b 35 bf 3d f3 75 45 3e 9a e6 04 be 67 b0 3a be
       0.093363725 0.19283275 -0.12978593 -0.18231355
000320 c7 97 40 3e 1e a3 05 be d0 6e 50 3d 6a b9 05 3e
       0.18807898 -0.13050506 0.05088693 0.13059011
000330 80 5b 43 bd c3 23 c6 3d 7f ce 94 be 48 17 b2 3b
       -0.047694683 0.0967479 -0.29063794 0.0054349042
000340 13 16 32 3e e0 1d 68 3e b6 b4 58 be e0 74 1f 3e
       0.17391233 0.22667646 -0.21162686 0.15571928
000350 4f 30 93 bc b3 c4 12 bd ba 4b 8e be 0a b6 6e 3e
       -0.017967371 -0.03583212 -0.2779215 0.2331163
000360 28 25 04 3e 56 94 29 bd a0 f6 03 be 88 6f bf be
       0.12904799 -0.04140123 -0.12887049 -0.3738978
000370 cc a3 cf 3d 52 05 96 3c 95 83 5f 3e be 55 f5 bd
       0.10138664 0.018313084 0.21827538 -0.11979245
000380 65 97 cb bc 0d 4b 7d 3e c4 c1 16 be 9d e6 aa bd
       -0.024852464 0.24735661 -0.14722353 -0.08344767
000390 a0 27 12 3e 7a 5f 1c be c9 37 5e be 70 14 ea 3d
       0.14272928 -0.15270796 -0.21700968 0.114296794
0003a0 4e 49 34 be e2 68 04 be bd 61 ff bc f0 c8 44 3e
       -0.17606089 -0.12930635 -0.031174535 0.19217277
0003b0 72 49 5b 3e a3 f7 0c 3e e3 51 c0 bd 50 42 0b bd
       0.21414736 0.13766341 -0.09390619 -0.033998787
0003c0 1b 49 a8 3d 70 eb 0a 3e e1 eb 1f 3c fd 32 7a 3e
       0.08217069 0.13566375 0.009760828 0.24433513
0003d0 94 12 73 be 42 c0 8e 3e 49 8f 55 bd 52 2f 13 be
       -0.23737556 0.27881056 -0.0521386 -0.1437352
0003e0 c2 b3 b7 bd 3f 87 25 3e f1 d2 ff 3d 8c 9f 26 3d
       -0.08969833 0.16164874 0.12491406 0.0406795
0003f0 23 ee 43 3e 8c bc a2 3d 03 58 60 3e 1f 4e b5 bd
       0.1913381 0.07946119 0.21908574 -0.08852791

sequential/dense_1/MatMul f4 [100, 100]
000000 96 99 15 3e 50 b5 5c 3d 28 2d c4 3d f5 c6 e4 3d
       0.1460937 0.05388385 0.09578925 0.111707605
000010 33 64 bc bc db cc 1e bd 1e 29 29 3e f0 5b 9d bc
       -0.022996997 -0.038769584 0.16519591 -0.019208878
000020 3e e4 06 3d d8 55 0f bb 65 e8 64 be a5 cf d1 bd
       0.032932512 -0.0021871235 -0.22354276 -0.10244683
000030 8d 2e 71 3e 88 81 23 3e d4 8b a2 be 2b ba a6 3c
       0.23552914 0.15967381 -0.31747305 0.020352444
000040 85 75 8e bd 00 69 42 3e 8e f5 6d bd 4f d7 cf bd
       -0.06956009 0.18985367 -0.058095507 -0.10148489
000050 36 dc fc bc c3 74 6a 3e ac 2c 8c bd ef 33 39 bd
       -0.030866724 0.22896104 -0.06844458 -0.045215543
000060 b4 9d 0f 3e 9a bc 19 3e 7a 9f 04 3e 2e a3 f4 bd
       0.14025003 0.15013352 0.1295146 -0.119451866
000070 89 bc 34 be f0 77 cc 3d c4 7e 01 bd 7d bf a4 be
       -0.17650045 0.09983814 -0.031615034 -0.32177344
000080 86 62 21 be 8d eb 4c 3e a1 53 13 be 21 6a e2 3d
       -0.1576024 0.2001173 -0.1438737 0.11055399
000090 b1 b0 a2 bc c5 42 cd bd e6 3c 26 3e 7c 58 ad bd
       -0.019859644 -0.10022501 0.16234168 -0.08464143
0000a0 9a 18 15 3e cb 6d 22 bd 7d be d9 bc c2 0c 70 3c
       0.14560166 -0.039655488 -0.02658009 0.014651479
0000b0 60 a7 ab bd 1d 42 82 3e e4 b3 ca 3d a2 47 e8 3d
       -0.083815336 0.25441065 0.09897593 0.11341788
0000c0 32 21 cf 3d 5e 36 92 bc 4c d5 2d be 90 c0 3f bd
       0.101137534 -0.01784819 -0.16975898 -0.0468145
0000d0 55 d9 c0 3d 64 cc 12 be 0c 19 f4 bd aa dd 89 bb
       0.09416453 -0.14335781 -0.1191884 -0.0042073326
0000e0 47 e9 61 3e f6 b7 17 bc df 04 57 3d 5a c4 d3 bd
       0.22061644 -0.009260168 0.05249488 -0.103401855
0000f0 9b 45 de bc 2b 8d d2 3d c5 25 44 3d 4d b7 62 be
       -0.0271328 0.10280832 0.047887582 -0.22140236
000100 9b 9a 9a 3d 4c a3 4d 3e 24 b9 d8 3d 47 bd c6 3d
       0.0754902 0.20081824 0.10582188 0.097040705
000110 fc a5 b3 3a d3 98 63 bd de c0 6b 3e d5 be ad bb
       0.0013706083 -0.055565666 0.23022792 -0.00530229
000120 8e a4 15 be bd ff 13 3d 19 2e 24 3e 0c 49 03 be
       -0.14613554 0.036132563 0.1603321 -0.12820834
000130 3a a7 37 3e db 56 22 3e 07 9b d6 bd 06 42 26 be
       0.17934886 0.15853445 -0.10478788 -0.16236123
000140 4f 84 79 3b 46 00 04 be e9 e4 15 be 3c f7 ba 3d
       0.0038073247 -0.1289073 -0.14638104 0.091291875
000150 fd f2 e9 3d 8a 2d 65 bd 88 5b fa bd b0 94 4a 3d
       0.114232995 -0.055951633 -0.122244895 0.049458206
000160 70 b6 92 be 93 de c8 3c b3 5e 52 3d 25 49 65 bd
       -0.28654814 0.024520194 0.051359843 -0.05597796
000170 9f 33 00 be cb ba 95 bd ee e6 bf 3c e9 0e e7 bd
       -0.12519692 -0.073110186 0.023425546 -0.11282141
000180 ac e5 b3 3d 58 2f eb bd 4f ab fb 3b 90 b4 1d be
       0.08784041 -0.114836395 0.0076803337 -0.1540091
000190 62 77 d9 bd d8 94 97 3d 3c 47 8e 38 bd b5 ec 3d
       -0.106184736 0.074014366 6.784356e-05 0.11558101
0001a0 b9 0e 3b 3e f1 87 e2 3d e5 b3 00 3e bc 7e f6 3d
       0.18267335 0.11061085 0.12568624 0.120358914
0001b0 fb 9e 8b bc 77 e3 02 3e 1f a9 fd bd 4f dc 09 be
       -0.017043581 0.12782083 -0.12385773 -0.13462947
0001c0 e5 17 10 3e 84 cd 92 bd 05 e7 ae bd a8 88 69 be
       0.14071615 -0.07168105 -0.08540157 -0.22806036
0001d0 dc 01 2b 3e dd 42 41 3e 80 7b fa 3d fc 75 d2 3c
       0.16699928 0.18873163 0.12230587 0.025691025
0001e0 9d 60 aa bd 5f c1 ce bd 0a 5b 1e be ea f6 d4 bd
       -0.08319209 -0.10095476 -0.15464416 -0.103986576
0001f0 99 fb ed bd 4c a1 89 bd c8 43 2e be 86 bf fb 3d
       -0.11620254 -0.06720218 -0.17018044 0.122923896
000200 bd 0d 85 be 7a 97 34 3d b0 b8 5c bc 25 8e 81 be
       -0.25987044 0.04408977 -0.013471767 -0.2530376
000210 a0 15 23 be 34 db f2 3c 39 09 17 3e f4 c6 55 3d
       -0.15926218 0.02964554 0.14749612 0.05219169
000220 e8 3b 64 be f1 c4 96 be 55 86 86 3e 58 0c 18 3e
       -0.22288477 -0.2944713 0.26274362 0.14848459
000230 ab f3 3a 3e 34 1e 96 bd 7e 50 1d 3e 5b a5 c4 3d
       0.18257014 -0.073299795 0.15362737 0.096018516
000240 83 b2 e9 3d 4c c6 8e 3e d4 e0 fb bb 43 ec c7 bc
       0.114110015 0.27885664 -0.0076867137 -0.02440465
000250 25 ee 1b 3e 66 69 1b 3a f2 1b 54 bd f6 bf 0d be
       0.15227564 0.00059284864 -0.051784463 -0.13842759
000260 34 7b 8b bd 33 a7 2b be 34 02 26 bb f6 4c 9d bb
       -0.068106085 -0.16763 -0.0025330903 -0.004800434
000270 74 eb cd bb 41 01 01 3e 0d e6 b5 bd d9 25 d4 bd
       -0.0062841717 0.12598135 -0.08881769 -0.10358781
000280 00 13 9b 3d b4 af c7 bd 2f e0 41 be e6 89 20 be
       0.07571983 -0.097503096 -0.18933176 -0.15677604
000290 91 ca ca 3d 93 68 17 3d bd c3 74 bd 5d ad bc 3d
       0.09901918 0.036964964 -0.059756983 0.09212754
0002a0 22 de a5 bd 96 ef 22 be 2f 1d a1 3d d2 d9 3a bc
       -0.08099009 -0.15911707 0.078668945 -0.0114044715
0002b0 21 b7 dc bd 1b 97 c2 3c 4b 62 28 3e ff e7 b2 bc
       -0.107771166 0.023753693 0.16443746 -0.02183914
0002c0 7b e1 c2 3d 63 45 12 3e 35 ca 11 be f3 64 37 bc
       0.09515663 0.14284281 -0.14237292 -0.011193502
0002d0 5e 62 a2 3d 5a 74 22 3e ee 55 42 be 34 23 e8 3d
       0.07928918 0.15864697 -0.18978092 0.113348395
0002e0 bd 8f 03 be 3a 01 90 3d 44 a8 1b 3e 6f 34 28 be
       -0.128478 0.07031484 0.15200907 -0.16426252
0002f0 4a f5 65 be ed a7 4b be ee 96 ef 3d 49 9c e1 3d
       -0.22456852 -0.19888277 0.116987094 0.11016137
000300 08 27 07 3e 18 e3 50 3e 3e 19 ef 3d 60 04 f9 bd
       0.13198483 0.2039913 0.116747364 -0.121590376
000310 67 41 81 bd 78 d2 99 be 2f a3 71 be 99 10 1b be
       -0.06311303 -0.30043387 -0.23597406 -0.1514305
000320 42 72 5c bc d1 05 a7 bd 66 8e 6c 3d 7c 4a 42 bd
       -0.013454976 -0.08155406 0.05775299 -0.047434315
000330 fa e2 29 bb 85 6e bf 3d 2a 4d 65 bd 3a da 0c bc
       -0.0025922642 0.09347252 -0.055981793 -0.008596951
000340 ed 87 b7 3d ee 12 af 3d fa cc c5 bd d1 da cd 3d
       0.08961473 0.085485324 -0.09658237 0.100515015
000350 30 2a 1f be 74 2e 3b be 8b e9 8b 3c a3 13 e6 bc
       -0.15543437 -0.18279439 0.017079135 -0.028085535
000360 a9 a8 70 3d ee 7c 9c 3c 7f ea b4 3c 0c 97 a6 3d
       0.058754597 0.01910254 0.022084473 0.08134279
000370 8a c9 fe 3d 79 4a 14 be 88 ae 28 bd 96 c0 ba 3c
       0.12440784 -0.14481534 -0.04118207 0.02279691
000380 97 65 98 bd 94 b9 02 be 2f 89 18 3e fe c9 19 be
       -0.07441252 -0.12766105 0.14896081 -0.1501846
000390 e0 b2 9c 3d 74 6f b4 3d 54 7f 6a 3d 93 48 a9 3e
       0.07651305 0.088103205 0.057250336 0.33063182
0003a0 7e 87 73 3c ab 2c 39 bd 63 74 b2 bc 32 a1 66 3d
       0.014863847 -0.045208614 -0.021784013 0.05630607
0003b0 66 c1 6d 3e af 0b 6b 3e 05 38 a9 bd 3a eb 98 3d
       0.23218307 0.22953676 -0.08262638 0.07466741
0003c0 37 68 b7 bd 5d d6 1e bd 76 57 d8 3d bf 51 1b 3e
       -0.08955424 -0.03877865 0.10563557 0.15167902
0003d0 bd 3b bf 3d dd 84 86 bd 2b 07 df 3d 30 db 9d 3d
       0.09337566 -0.065683104 0.10890039 0.07707822
0003e0 69 2d 82 ba e5 18 03 3d f0 e7 a2 3b fa d1 6f bc
       -0.0009931746 0.032006163 0.0049714968 -0.014637465
0003f0 af 4b c4 bd 29 2d 2a 3a 9f 12 0a be b9 6f 6a bd
       -0.09584748 0.0006491715 -0.13483666 -0.057235453

sequential/dense_2/MatMul f4 [100, 100]
000000 bc 6c 09 be ca 61 3d 3d 71 8f 18 bd b9 e3 2f bc
       -0.13420385 0.046235837 -0.03724617 -0.010735446
000010 b9 0d ca bd 0c 59 e9 3d 1a 75 09 3e 74 ac 20 3e
       -0.09865899 0.113939375 0.13423577 0.15690786
000020 7d 4c 9a bd 38 ef 9d 3d 7e 25 86 3c 85 9f 14 3e
       -0.0753412 0.07711643 0.0163753 0.14513977
000030 76 2e 0d 3e 23 7f ad 3d fe a2 d1 bd 45 f1 9f 3e
       0.13787255 0.08471515 -0.102361664 0.31238762
000040 57 08 0a 3e 12 a8 4b 3e fb 70 2d 3d 42 d1 01 3e
       0.13479744 0.19888332 0.042344075 0.12677482
000050 88 69 34 3e cc 7b 5c 3e 3d 8e 23 be 86 c7 d6 bd
       0.17618382 0.215316 -0.15972228 -0.10487275
000060 2b 62 a6 3e 08 f0 bb 3c 53 c2 9c 3e 39 ef b1 bd
       0.3249677 0.022941604 0.30617008 -0.08688206
000070 78 24 d6 3c 8f fc 1d be 09 c2 21 3c 9b 17 1c 3e
       0.026140437 -0.15428375 0.009872922 0.1524338
000080 8c a7 00 bd 05 f1 75 be a6 8d f7 3d 3e 4b 23 be
       -0.031409785 -0.24017723 0.12087564 -0.15946671
000090 b7 ba da bd f0 09 25 3e 03 79 37 be fc 0e da 3d
       -0.10680144 0.16117072 -0.17917256 0.10647389
0000a0 41 54 5d be 28 ad 88 3d e5 98 78 3e df 00 b5 3d
       -0.21614172 0.06673652 0.24277075 0.08838057
0000b0 84 20 bf 3e 1b d2 9f bc 04 e1 10 bd be 23 8a 3e
       0.37329495 -0.019509366 -0.03537084 0.26980394
0000c0 be 8c 17 3e bf 5d ab bc 6b 57 fe bc 73 90 f3 bc
       0.14799783 -0.020918725 -0.031047544 -0.029731965
0000d0 97 be 18 be 83 d0 71 be f3 25 c8 3d 18 2a c7 3d
       -0.14916454 -0.23614697 0.09772863 0.097248256
0000e0 67 ef 00 be d1 61 c1 bd f8 a7 9a 3c 4c 93 61 3e
       -0.12591325 -0.09442485 0.018878922 0.22028846
0000f0 05 5b 00 3e 4c 5b a8 bb 16 6d de bd d0 6f cd 3d
       0.12534721 -0.0051378366 -0.1086065 0.10031092
000100 f0 34 bf 3d ff 8b 14 be 9e da 45 be 79 b1 d2 3d
       0.09336269 -0.1450653 -0.19321677 0.102877565
000110 ac 42 28 3a c2 f7 5f 3d 0e 43 ec 3d 09 23 60 3e
       0.0006418626 0.05467964 0.11536227 0.21888365
000120 b1 94 01 bd e4 68 39 be 98 ee ca 3d fa 38 8a 3e
       -0.031635944 -0.18106419 0.099087894 0.26996595
000130 60 68 e4 bc 77 df df bd c3 bd 76 3d 67 69 b6 3d
       -0.027881801 -0.109312944 0.060239565 0.08906823
000140 91 37 08 3e 00 5e 04 3c 8e 7b 17 3e c1 93 82 bd
       0.13302447 0.008079052 0.14793226 -0.06375838
000150 26 90 c9 bd d5 78 b0 3d 08 d5 34 bc 55 f4 19 3e
       -0.09841947 0.08616797 -0.011037119 0.15034612
000160 95 01 16 3d fc 42 0c be d8 90 fd bc 3a e8 1b 3e
       0.036622602 -0.13697428 -0.030952856 0.15225306
000170 3b 8a 09 3d a6 96 9b bd a5 ac 7f 3c 19 be 6e 3d
       0.033579092 -0.07597093 0.0156051265 0.05828676
000180 3d 17 4d 3d f9 a1 a6 bd d7 c2 58 3e 00 be d3 3c
       0.05007099 -0.081363626 0.21168076 0.025847435
000190 44 92 bf bd e1 3b a2 bd be 40 2c 3e 81 3a 59 bd
       -0.0935407 -0.07921577 0.16821572 -0.05303431
0001a0 c7 87 d2 bd ee 3d 26 3e 2e 86 7c 3e ea 5d c0 3d
       -0.10279804 0.16234562 0.2466056 0.09392913
0001b0 f5 62 22 3c e4 55 d1 bb 6b 55 c7 bc 81 cb fb bd
       0.0099112885 -0.006388413 -0.024332723 -0.12294675
0001c0 07 e0 b5 ba 9f b3 bf 3d e2 8a b0 bd b3 f0 56 3e
       -0.001387597 0.09360432 -0.0862024 0.20990257
0001d0 f3 1c a4 3d db ba 18 3e 23 ec 9b bd ab 72 d0 3d
       0.08013334 0.1491503 -0.07613399 0.10178121
0001e0 2d f0 36 3e cf 0c 96 3e fa 46 b0 3d 98 92 e6 bd
       0.17865057 0.29306647 0.08607288 -0.11258429
0001f0 cf c3 a0 3e e3 48 2c 3e f3 35 e5 3d 10 0d d8 3d
       0.3139939 0.16824679 0.111919306 0.105493665
000200 5f 70 e9 3d 91 e9 0a 3e de 36 fe 3d cc 43 00 3d
       0.11398386 0.13565661 0.12412809 0.031314656
000210 84 a4 a4 3d f0 bc 1f be a9 19 45 be 42 56 d4 3c
       0.08039191 -0.15599418 -0.1924807 0.025920037
000220 c1 cc 87 3c 94 54 32 3d 33 ab cc bd a0 72 ff bc
       0.016577126 0.04353769 -0.09993591 -0.031182587
000230 7d c5 50 3c 63 a5 bb 3d 29 2b 89 3e 04 bd 0e be
       0.012742397 0.091624044 0.2679074 -0.13939291
000240 cc 85 a1 3e 7a e0 40 bc c8 0b ab bd e2 fd 77 3e
       0.3154739 -0.011772269 -0.083518565 0.24217942
000250 26 83 0d 3e f7 a4 18 3e 33 75 d4 bd 89 27 0e bd
       0.1381956 0.14906679 -0.103739165 -0.034705672
000260 85 41 8a bd 00 3b 89 be 5c 7c c2 bc a9 53 32 3e
       -0.06750778 -0.26802826 -0.02374094 0.17414726
000270 f7 e0 09 3e aa 15 5e 3d 9c d2 1a 3e bb 54 0f be
       0.13464724 0.05421988 0.15119404 -0.13997166
000280 e9 27 9a bd c4 e8 25 be bb 0a 98 3d 63 56 02 3e
       -0.075271435 -0.16202074 0.07423922 0.12728266
000290 63 ac ac 3d 39 97 14 be 84 0c a8 3d f8 74 8a 3e
       0.08431318 -0.14510812 0.08205512 0.27042365
0002a0 9f 82 45 3e 74 7d ef bb a7 60 8a 3c 9b 33 89 3d
       0.19288109 -0.0073086563 0.01689179 0.06699296
0002b0 f7 e0 d6 3c 47 e7 89 bd 80 04 e0 3d 0c 4a ff 3d
       0.026230318 -0.06733566 0.10938358 0.12465295
0002c0 4c a3 4f bd d3 3a 24 be ca 32 31 3e 72 4b 91 3d
       -0.05069284 -0.16038065 0.1730453 0.07094468
0002d0 70 01 40 3e 90 b6 1b 3e 13 d6 c7 3d 27 34 af bc
       0.18750548 0.15206361 0.09757628 -0.021387173
0002e0 f2 23 84 ba 5a 41 2e 3d 3b d5 0d 3e c1 1e b2 3d
       -0.0010081513 0.042542793 0.13850872 0.08697272
0002f0 ad 53 12 bd cd 52 31 bd c5 48 20 be f0 32 ab bc
       -0.03572433 -0.043291856 -0.1565276 -0.020898312
000300 ae 3a 3f 3d 42 ff f5 3d 86 0c d4 3d a3 31 96 bd
       0.04668682 0.12011577 0.10353951 -0.07333686
000310 a6 bd 88 bd a1 d9 6f 3e 7f fe c2 3c c5 77 30 be
       -0.066767976 0.23422863 0.023802994 -0.17233188
000320 fc a3 15 3e 9d 20 56 bd 1f 2e 34 be 99 2f 99 bc
       0.14613336 -0.052277196 -0.17595719 -0.018699454
000330 e8 ac 0f 3c c3 70 23 be f8 4c 3f be c9 8a 09 3d
       0.008769251 -0.15960984 -0.18681705 0.03357962
000340 5d 3d a6 3d 71 d7 1d 3c 8a 32 19 be 9d 74 6a 3d
       0.08117173 0.009633885 -0.14960685 0.057240117
000350 22 3d 1d 3e bf eb 24 3e 8b cb 0e 3e 88 02 6d be
       0.15355352 0.16105555 0.13944833 -0.23145497
000360 ca 69 61 3d 45 e0 57 be 6d e3 6d 3c f2 48 21 bd
       0.05503253 -0.21081646 0.014519555 -0.039376207
000370 62 01 a1 bd 87 2b 9d bd a5 a8 31 3e a2 c4 95 bd
       -0.07861592 -0.07674318 0.17349489 -0.07312895
000380 80 4c 07 be 12 b0 a1 bb 4e 31 a5 be d9 9f 4c 3e
       -0.13212776 -0.0049343193 -0.3226418 0.19982852
000390 4d 9e 78 be 59 d4 49 3e 9d e5 28 bd ee 4d 0a 3e
       -0.24279137 0.1970991 -0.0412346 0.1350629
0003a0 f9 2a 9e bc fb ee 21 3e 19 cb 19 3e f4 0a 1e 3d
       -0.0193076 0.1581382 0.15018882 0.038584664
0003b0 15 c5 a5 bd 76 c0 07 be c4 7e 55 3e 8b d4 ac bd
       -0.08094231 -0.13257012 0.20849138 -0.08438977
0003c0 7f 4c 25 3e 36 96 43 3e 1d a3 27 3d 1b fd 98 3c
       0.16142462 0.1910027 0.04092704 0.018675378
0003d0 40 d1 e0 bd e4 95 4d 3c 60 8a bf 3d 51 14 c8 bd
       -0.10977411 0.012547944 0.09352565 -0.097695
0003e0 44 1a 86 3d 6f c9 96 3c c8 f3 56 3c f7 a9 5a 3d
       0.065479785 0.018406598 0.013119645 0.053384747
0003f0 24 31 30 3e 08 09 07 3e eb bb 20 be a1 bb 8a bc
       0.17206246 0.13187039 -0.15696685 -0.016935172

sequential/dense_3/MatMul f4 [50, 100]
000000 b2 a3 ae 3c 7d d7 33 be db 13 a2 bd 72 67 ae 3d
       0.02131829 -0.17562671 -0.079139434 0.085158244
000010 b4 5a 87 3c a5 9c ff bd 78 eb 0d be 83 aa c5 3d
       0.016522743 -0.124810494 -0.13859355 0.09651663
000020 a1 f3 0a 3d 68 6c d8 3d d7 93 f8 3c 37 a7 19 be
       0.03392375 0.10567552 0.030343933 -0.15005194
000030 ca 07 fd bd a3 d8 35 be 88 05 bd bd 26 99 b6 bd
       -0.12355001 -0.17758422 -0.092295706 -0.089159295
000040 95 3a 16 3d 97 b6 95 3d 67 76 fb 3d 82 7d 29 3d
       0.036676962 0.07310217 0.12278443 0.04137946
000050 f4 83 bb 3d e3 44 18 be 30 9a ad 3d 38 2b a2 bb
       0.091560274 -0.14870028 0.084766746 -0.0049489997
000060 51 cc 47 be 64 6c d4 3d 92 23 0f 3e ca 62 61 bc
       -0.19511534 0.10372236 0.13978413 -0.013756463
000070 5e 3f e5 3d b1 47 27 3e a3 91 2c 3e 6e a6 f2 3d
       0.11193727 0.16335942 0.16852431 0.1184815
000080 64 63 5b be 92 87 19 3e 14 a0 ce 3d e4 0c 0a 3e
       -0.21424633 0.14993122 0.10089126 0.1348148
000090 7a 09 99 3d 13 73 24 be c8 b9 11 3e 89 df 9b bd
       0.07472511 -0.16059522 0.14231026 -0.07610995
0000a0 ed ab dd bd b9 8e 01 be 5f d4 4b bc 63 ea 31 3e
       -0.10823808 -0.126521 -0.01244077 0.17374568
0000b0 5a b4 48 bd 3b cb e0 bc b0 0d 91 3d 8b c1 4d bd
       -0.04900012 -0.027440658 0.07082689 -0.050233405
0000c0 f8 60 06 3c 5a da e4 3d 22 a6 b1 3d 62 54 c8 bd
       0.00820183 0.1117446 0.086742654 -0.0978172
0000d0 65 03 6e bd 98 75 29 3e 19 fb 01 3e 2e e6 12 3d
       -0.058108706 0.16548765 0.12693442 0.035864048
0000e0 d7 8b 2e 3e c0 bd 89 3d 5a f4 43 bd 01 75 15 3c
       0.17045532 0.06725645 -0.047840454 0.009122134
0000f0 03 b0 4a be 7a d7 35 3e fc ed 64 3d 52 76 9e 3d
       -0.19793706 0.17757979 0.055891022 0.077374116
000100 a1 02 00 3e f0 ea df bc f0 42 b3 3d 5f 20 3d be
       0.12501003 -0.027333707 0.08753002 -0.1846938
000110 63 aa 35 3d 43 ee 27 3e 33 45 55 be ab 5a 0d be
       0.044351947 0.16399483 -0.20827179 -0.13804118
000120 b9 95 89 3d 8b 0a d5 bd 66 a4 3d 3e ec 9c fd bd
       0.067180105 -0.104024015 0.18519744 -0.12383446
000130 0a d1 30 3e 68 75 0e be e0 ca ee bd e5 15 3a be
       0.17267242 -0.13911974 -0.11659789 -0.18172415
000140 b8 83 26 be 7f 3b 72 bd f4 b8 81 bd 32 6f b5 bd
       -0.16261184 -0.05913877 -0.06334105 -0.088590994
000150 0a a6 e0 3d 91 0e 10 3e c5 06 1c be 36 0e 1c be
       0.109691694 0.14068057 -0.15236957 -0.15239796
000160 70 88 55 bd 45 3c ad 3d 1e f1 93 3d 8f d5 25 be
       -0.05213207 0.08458761 0.07223724 -0.16194747
000170 82 d7 20 3d 92 90 37 3e b0 52 d0 3c 19 d9 97 3d
       0.039268024 0.17926243 0.025430053 0.07414455
000180 59 a2 3d 3e 07 2a 3d 3c 22 7b a8 3d ef fc 87 3d
       0.18518962 0.011545665 0.08226611 0.0664004
000190 9c e8 22 bd 21 62 f6 bd 38 8a f2 bd 86 df 3a bd
       -0.039772615 -0.12030435 -0.118427694 -0.045623325
0001a0 e6 2c 73 3d 54 f2 21 3e 57 1c 0a bd a5 bb 3a be
       0.05936899 0.15815097 -0.033718433 -0.18235643
0001b0 b7 c3 62 bc 36 6d 9a 3d 20 bb c5 3c 93 1b 0d be
       -0.013840607 0.075403616 0.02413708 -0.1378005
0001c0 fa 6a c8 3d 68 32 a0 bc 09 dd 96 3d 84 57 ce bc
       0.09786029 -0.019555286 0.07366378 -0.025188215
0001d0 6e 76 22 3e 4a e6 30 3e 91 8c 23 bd 71 e3 96 3d
       0.1586549 0.17275348 -0.039928976 0.073676
0001e0 82 53 0b 3e f9 ba 89 bc fa 69 0d 3e ab 9e b6 3d
       0.13606074 -0.016812788 0.13809958 0.08916982
0001f0 b7 0c 03 be 2c 63 09 3e c0 f7 35 be b2 f7 db bd
       -0.12797819 0.13416737 -0.1777029 -0.107406035
000200 83 7b 46 bd af 7c 19 be 73 73 2d be 74 54 00 be
       -0.048457634 -0.1498897 -0.16938572 -0.12532216
000210 70 39 b0 bd c8 f3 53 3d 4d 63 ff 3d be f7 18 3c
       -0.08604705 0.05174616 0.12470112 0.00933641
000220 f3 a9 23 3c c9 76 36 be 46 48 a5 bd 24 32 75 bd
       0.0099892495 -0.1781875 -0.08070426 -0.05986227
000230 a8 2d 9a bd 9e 99 ba 3d f7 b1 05 be f9 ff 58 be
       -0.075282395 0.091113314 -0.1305617 -0.21191396
000240 5b 98 b5 3c ed fa f0 3d 3b 9d 21 3e 3b dd b1 3d
       0.022167375 0.1176661 0.15782635 0.086847745
000250 4a f6 32 3e bd 9f 0a 3d 4b ce 63 3d c9 2f 0a 3c
       0.17476764 0.033843745 0.05561666 0.008434244
000260 0a 0d 4e be 74 09 3f be cd 25 03 bc 85 d4 11 3e
       -0.20122162 -0.1865595 -0.008004618 0.14241226
000270 ea f5 d5 bd f1 3d f9 3d dd 01 a1 3c dc 7c 3f be
       -0.10447295 0.121700175 0.019654209 -0.18699974
000280 0f d3 1d 3e 7c 51 ac bd 43 9c 4f 3d f6 b8 20 be
       0.15412544 -0.084139794 0.050686132 -0.15695557
000290 25 fe 3e bd 09 5d 08 be 63 1f 10 be cd d3 32 3d
       -0.04662909 -0.1331674 -0.14074473 0.04365902
0002a0 1c 63 0b bd a4 b1 24 bd 08 ef e9 3c 84 3d ec 3d
       -0.034030065 -0.040208474 0.028556362 0.11535171
0002b0 f4 cc 3b be d1 82 e8 3b 9a d4 e2 3d 1b db 2a 3e
       -0.18339902 0.0070956727 0.11075707 0.16685145
0002c0 00 83 82 be 94 df 33 be 6e 4e 9e 3d 1e 7d 23 3e
       -0.2549057 -0.17565757 0.07729803 0.15965697
0002d0 07 1f 57 3d 53 1f ff bd 5b 72 1d bd 8d 4e 5c 3d
       0.052519824 -0.124571465 -0.038439136 0.05378585
0002e0 57 c8 eb bc 87 53 3d be 03 17 38 be 6c 09 1d be
       -0.028782053 -0.18488894 -0.17977528 -0.15335625
0002f0 4a 3f df 3d a5 96 3d 3e 98 5c 26 3d 37 71 bd bd
       0.10900743 0.18514498 0.040615648 -0.0925011
000300 d7 9a 82 3d 8b b9 1b be ba 98 ad bc 14 a2 85 bd
       0.063771896 -0.15207498 -0.02119099 -0.065250546
000310 cc 2d 06 be 38 1d 10 be f6 cf ff 3d d1 bd 50 be
       -0.13103408 -0.14073646 0.12490837 -0.20384909
000320 1a 8d 33 be b3 1c 13 be d3 5c b9 bd a7 5e d5 bd
       -0.17534295 -0.14366417 -0.09050908 -0.10418444
000330 a8 38 4c bd 80 cf 8f 3c da 76 36 be a7 ad b0 bd
       -0.04985872 0.017554998 -0.17818776 -0.086268716
000340 da 39 9f 3d 6d 22 15 be 53 6c ee bd 74 a4 29 3d
       0.07774706 -0.14563914 -0.11641755 0.0414166
000350 ad 41 d0 bd 50 8c 43 be 02 99 f7 3d 7a 30 af bd
       -0.10168777 -0.19096494 0.12089731 -0.08554168
000360 50 cc f6 bc cc 70 53 3d 94 a0 0b be c7 13 e7 bd
       -0.03012672 0.051621243 -0.13635474 -0.11283069
000370 d3 65 cd bd 5d 5e 26 be 1a 03 d9 bd fa fc 38 be
       -0.10029187 -0.16246934 -0.10596295 -0.18065253
000380 20 2b be bd 26 62 81 3d da f2 9c 3d 1a 70 8a bd
       -0.09285569 0.063175485 0.07663508 -0.06759663
000390 7a ec aa 3d 50 d8 e5 bc 1d 85 28 be 68 9b 97 bc
       0.083458856 -0.028057247 -0.16457029 -0.01850672
0003a0 58 e7 56 bd b0 0d b3 bc 9a f4 ce 3d 98 21 05 bd
       -0.05246672 -0.021857113 0.10105248 -0.03250274
0003b0 ed d8 ec bd b7 9f 31 be 00 1d 5a 3c b4 93 82 bd
       -0.11564813 -0.17346083 0.013312578 -0.063758284
0003c0 59 85 2f 3e 60 81 4c bc 73 21 ca bd 2d 6f 34 be
       0.17140712 -0.012482017 -0.09869661 -0.17620535
0003d0 cc e0 0d bd c6 6e f3 3d 00 03 3a 3a c7 47 b3 bd
       -0.03463821 0.11886363 0.0007095784 -0.08753925
0003e0 82 87 ae 3d 34 bc 76 bd b0 0a 95 3c 7a 2d d7 bd
       0.0852194 -0.06023808 0.018193573 -0.10506721
0003f0 81 ab 22 3e 86 2a 0a be 0d 37 2a 3e 60 31 0f be
       0.15885736 -0.13492784 0.16622563 -0.13983679

sequential/dense_4/MatMul f4 [40, 50]
000000 b0 a7 f7 bd 8f 05 54 3e 80 28 b3 3c 3a 9d c3 3c
       -0.12092531 0.20705245 0.021869898 0.023878682
000010 9a d2 06 3d 95 75 1d 3e ad d1 0d 3e db f3 63 be
       0.03291569 0.15376885 0.13849516 -0.22260992
000020 3d 61 08 3d 45 80 6e 3c 77 d0 1b 3e 5f c1 d2 3d
       0.03329586 0.014556949 0.15216242 0.10290789
000030 d8 82 59 be 34 67 56 be 7e 7b 8e 3e c5 33 4b be
       -0.21241319 -0.20937806 0.27828592 -0.19843967
000040 29 fb dd bd c5 c9 a5 bd 6d bf 84 3e 77 1e 9b bd
       -0.108389206 -0.08095125 0.25927296 -0.0757417
000050 6d 44 66 3c 7d 46 13 be a9 b5 1f 3c f7 c2 d0 bd
       0.0140544 -0.14382358 0.009747901 -0.101934366
000060 02 9e 3a be 45 3d c9 bb ef 05 21 3e 89 4e 98 3e
       -0.18224338 -0.006141337 0.1572492 0.29747418
000070 73 24 bc bb 07 5d c5 3d ca fe c2 3d 57 36 85 be
       -0.00574165 0.09636884 0.095212534 -0.2601802
000080 b3 60 6e bd 75 14 9f 3d e8 d5 d0 3d 7b cf fa bd
       -0.05819769 0.07767574 0.101970494 -0.12246605
000090 e6 e5 81 3d c5 ff 5a 3e 35 0e 78 be 64 a9 8b 3a
       0.06342678 0.21386631 -0.2422417 0.0010655341
0000a0 e6 8e a7 3d 68 02 a2 bd cd 49 20 3e b3 86 87 3e
       0.081815526 -0.07910615 0.15653153 0.26469955
0000b0 13 42 fc 3d 34 a1 00 3e 00 14 0d 3e d4 78 55 be
       0.1231729 0.12561494 0.1377716 -0.20846874
0000c0 00 e3 da bd d7 84 70 3e 16 7c 3e 3e a9 88 79 be
       -0.10687828 0.23488174 0.18602023 -0.24368538
0000d0 9c 8c 9d 3d dd 47 94 3d 09 af 43 be 14 91 e1 bd
       0.07692835 0.07240269 -0.1910974 -0.110139996
0000e0 2b ef 04 3e 35 a0 00 bd fd 48 1a be 39 32 6e be
       0.1298186 -0.031402785 -0.15066905 -0.23261346
0000f0 b6 dd aa 3d 28 c2 2f be ad 8c 1f be 28 ef 46 3d
       0.08343069 -0.17163908 -0.15581007 0.04856792
000100 fe b6 14 be 89 41 c7 bd 1c 5c 26 3c 06 0a 01 3e
       -0.14522931 -0.09729297 0.0101537965 0.1260148
000110 87 c7 2c 3e 60 cc 3d bc f1 44 d7 3d 37 26 76 be
       0.16872989 -0.011584371 0.105111964 -0.24038015
000120 60 bc a6 3d 48 d5 75 be b0 25 79 3e ed c4 82 be
       0.081413984 -0.24007142 0.24330783 -0.25540867
000130 02 94 d9 bd af c7 33 be b9 4f 26 be 0d 85 58 be
       -0.106239334 -0.17556642 -0.1624135 -0.21144505
000140 40 be b2 bd 7c 50 34 be d8 33 4a 3e 3f 7f 59 3e
       -0.087276936 -0.17608827 0.1974634 0.21239947
000150 e8 4a 83 be ce fc 21 3e d9 af a7 bd 7d 6e 3d be
       -0.25643086 0.15819094 -0.08187837 -0.18499179
000160 8f de 8d bd 31 f2 76 be 97 82 17 bd dc 0d 0e be
       -0.06927215 -0.24115826 -0.036989775 -0.13872474
000170 2e 01 1b 3e b8 33 42 3e 4d 0a 78 be 18 9d 3b be
       0.15137169 0.18965042 -0.2422268 -0.18321645
000180 a2 49 6d 3e ba f5 6b be 0c e5 d5 bc be 14 00 be
       0.2317262 -0.23042956 -0.026110195 -0.12507913
000190 39 14 8a bc 99 02 7b be 29 44 4b be ed 30 60 be
       -0.016855346 -0.2451271 -0.1985022 -0.21893664
0001a0 9e c6 48 bd b1 5d 99 bd 98 99 e8 3d db 4c a7 bd
       -0.04901754 -0.07488573 0.11357421 -0.08168956
0001b0 7e 84 42 be 11 06 e8 3c b5 66 31 3d c2 81 62 3e
       -0.18995854 0.028323205 0.04331084 0.22119811
0001c0 14 f5 1b be 16 64 48 bd 1c 24 1d bc 3c bc f0 bd
       -0.15230209 -0.048923574 -0.009591129 -0.11754653
0001d0 a8 3b 4f 3e 6d 15 93 3e d2 0a 95 3d 80 ee 21 be
       0.20237601 0.28727284 0.072774544 -0.15813637
0001e0 f5 ae 2a be 76 36 19 be f6 f6 42 be 09 74 4e be
       -0.16668303 -0.14962181 -0.1903952 -0.20161451
0001f0 a2 43 64 be 96 72 af 3d 3a ba 11 bd 17 af a9 3e
       -0.22291425 0.085667774 -0.03557799 0.33141395
000200 08 d5 1d 3e 00 06 f3 3d 82 76 0d bd d2 62 27 3e
       0.15413296 0.11866379 -0.034536846 0.1634629
000210 cc 23 8b 3e 0c 03 8c 3e c2 08 0a be 91 63 25 3e
       0.27175748 0.27346075 -0.13479903 0.16151263
000220 62 c9 19 3e c8 ed 1f bd c1 df 56 be e8 1e 3f 3d
       0.15018228 -0.039045125 -0.20983793 0.046660334
000230 60 2b 7e 3e c6 bb 41 3d fc 2d 26 3e db 2c a8 3e
       0.24821234 0.047298215 0.16228479 0.32846722
000240 e5 39 c8 bd d3 21 07 be 4b d3 30 be ea 67 75 be
       -0.097766675 -0.13196497 -0.17268102 -0.23965421
000250 3d e0 54 3e 40 c1 01 3e e2 af c5 bd f3 d8 27 3d
       0.20788665 0.12671375 -0.096526876 0.040978383
000260 30 0a 47 3d c0 3d 22 3e 6b 27 18 be a8 09 c3 bd
       0.0485937 0.15843868 -0.14858787 -0.09523326
000270 54 7a 20 3d 81 e4 1d 3c 5d 90 12 be 1b 15 0b be
       0.03917916 0.009636999 -0.14312883 -0.1358227
000280 fc af 8f 3e bd 6c a2 3d e7 df cc 3b 00 9e 87 3a
       0.28063953 0.079308964 0.006252277 0.001034677
000290 d4 d3 2a 3e a7 cc 31 be b9 5e 9d bd f7 27 9b 3d
       0.16682369 -0.17363225 -0.076840825 0.07575982
0002a0 e5 58 4a be 6a 25 83 be 47 9f 6b bd ed 35 37 be
       -0.19760473 -0.25614482 -0.057524946 -0.17891665
0002b0 14 8c 77 bd 5e ec 4e 3e 49 0e e7 bd c5 c3 15 3e
       -0.060436323 0.20207354 -0.112820216 0.14625461
0002c0 f8 d7 f2 bd 05 ac eb bd d3 5f 05 3e 8d cb 8e be
       -0.11857599 -0.115074195 0.13024835 -0.27889672
0002d0 58 e4 b3 3d 07 dd 59 3e 79 28 12 be 86 9e cb 3d
       0.087837875 0.21275721 -0.14273252 0.09942345
0002e0 1e 21 7e 3d 41 5b be bd 06 e4 9c be 0f 3b 8e bd
       0.0620433 -0.09294749 -0.30642718 -0.06944858
0002f0 5f 5d 88 3e 9e e8 49 be 6b 5d ee bc 2c 7a b8 bd
       0.26633736 -0.19717643 -0.02909728 -0.090076774
000300 44 9b 34 bd 77 a3 99 3d 53 52 93 be 67 1d 83 3e
       -0.044093385 0.075018816 -0.28773746 0.2560837
000310 23 f5 03 be 50 51 4d 3e 1e 7d a1 be f6 f3 7c 3e
       -0.12886481 0.2005055 -0.3154077 0.24702439
000320 2f f9 06 3e 72 0c 58 3e 6a f7 40 3e 6c c8 8a 3d
       0.13180993 0.21098498 0.18844381 0.06776509
000330 6d 40 62 3e c2 6b 5a be 0f 52 50 3e c4 e5 28 3e
       0.22094889 -0.21330169 0.20343803 0.16493899
000340 fc 0d ca bd aa 3b 84 be 38 ba 21 3e 5d 73 28 3e
       -0.098659486 -0.2582677 0.15793693 0.16450258
000350 2b 8f 42 3e f0 50 1b 3e 7d ad 94 be fe 40 33 be
       0.18999927 0.15167594 -0.2903861 -0.17505261
000360 4f 53 5b bd 52 3d 2d be 48 91 74 be f8 06 6f be
       -0.053546246 -0.16917923 -0.23883545 -0.23342502
000370 5b 76 42 3e d6 7d f7 3d 00 a0 83 3a 48 88 c1 bb
       0.18990462 0.12084548 0.001004219 -0.0059061386
000380 4c 8a 84 bd 53 25 37 3d f2 e9 5d 3e e9 7f d9 3d
       -0.064716905 0.04471333 0.21671274 0.106201
000390 d9 90 75 3e c9 e2 47 be 31 2f ab 3e d8 bf 70 3e
       0.23981036 -0.19520105 0.33434442 0.23510683
0003a0 c2 d7 4f 3d 12 e8 dd bd 57 12 bb bd e4 a2 be bd
       0.050742872 -0.108352795 -0.091343574 -0.09308413
0003b0 03 db 6b be 48 31 35 be 6e 65 fd bd b9 bd bb bd
       -0.23032765 -0.1769458 -0.12372862 -0.09167046
0003c0 9c a0 cf bd 01 a8 5d be 10 ac b5 bd 49 de 92 3d
       -0.10138056 -0.2164612 -0.08870709 0.07171304
0003d0 e2 94 4e be 08 c2 0d be 46 0c 46 bc c8 d6 bf 3d
       -0.20173982 -0.13843548 -0.012087887 0.09367138
0003e0 df dc 20 3d 98 f4 4b 3e 41 b2 be 3d 83 ef 29 be
       0.03927314 0.19917524 0.09311343 -0.16595273
0003f0 d8 a9 8d bd 60 17 77 be dc b9 2d 3e 31 3f 1e be
       -0.06917161 -0.2413001 0.16965431 -0.15453793

sequential/dense_5/MatMul f4 [2, 40]
000000 c7 60 42 bd 31 ae d5 3d 0d 7f 90 be b6 a8 af 3e
       -0.047455575 0.10433615 -0.28221932 0.34308404
000010 d8 f4 65 3d 0d c3 e1 be 46 5e 08 be 51 b3 92 be
       0.056141704 -0.44094124 -0.13317212 -0.28652433
000020 00 19 b9 bb 01 cf 1e 3e 0b 10 20 3d df 6f 2f be
       -0.005648732 0.15508653 0.0390778 -0.17132519
000030 2d 66 ee 3e 70 cd 7e 3e 22 0a 86 be d2 d2 b2 be
       0.4656233 0.24883056 -0.26179606 -0.34926468
000040 b5 68 df 3e c0 55 58 3d 9d e8 8d 3d e4 d2 a6 3e
       0.43634573 0.052816153 0.06929133 0.32582772
000050 98 57 bf bd 1a 8b 7a 3e 04 49 c6 3e 7f 9b 83 be
       -0.09342879 0.24467126 0.38727582 -0.25704572
000060 8a a2 ff 3d ae 51 c3 bd 76 fa b4 3e 4e 91 87 be
       0.12482174 -0.095370635 0.35347337 -0.26478046
000070 df 96 91 3d 00 04 9b bd ba 46 84 bc 0e 43 94 be
       0.071088545 -0.07569122 -0.016147006 -0.2895741
000080 22 5a 39 3e fc 54 8a be 33 91 db be f7 f5 c6 be
       0.18100789 -0.27017963 -0.42884216 -0.3885953
000090 d3 fa af be bc 4a 2c be 4a 79 69 be 94 4d d1 3e
       -0.3437105 -0.16825384 -0.22800174 0.408795
0000a0 28 99 08 3e 33 87 cb 3d 2b 97 83 3d c1 a1 94 be
       0.13339674 0.099378966 0.064253174 -0.29029658
0000b0 43 33 90 be 03 55 c4 3e 31 a7 16 bd e0 1f ae 3e
       -0.2816411 0.3834611 -0.03678054 0.34008694
0000c0 cf 32 bf be 16 ed 88 be a8 4b c2 bd 70 5d d2 be
       -0.3734345 -0.26743382 -0.094870865 -0.41086912
0000d0 0d b1 a3 be 82 7e ab be 1c 65 b6 3d 4a 7a 35 be
       -0.31971017 -0.33494955 0.08906004 -0.17722431
0000e0 db c2 81 3e cb 71 69 be 43 70 ab 3e 98 53 5a 3d
       0.25343975 -0.22797315 0.33484086 0.053302377
0000f0 c2 42 96 be 5c f8 42 bd 16 cb df be 03 a4 86 3e
       -0.29347807 -0.047600135 -0.4370963 0.26297006
000100 d4 81 0c be 97 5a ec be 35 65 41 be 2e ed 02 3c
       -0.137214 -0.46162865 -0.18886264 0.007991118
000110 69 6e 81 3e 70 53 ae bd 3b 5b ab be 5c ab 8a 3c
       0.2527955 -0.08512008 -0.3346804 0.016927414
000120 f5 e1 11 be 0d a6 90 bd 93 0b 74 3e 4d 28 84 3e
       -0.14246352 -0.07062922 0.2383254 0.25811997
000130 3e 35 43 3c 8a f1 28 bd fd 05 cd 3e 79 d2 c9 3c
       0.011914549 -0.041245975 0.4004363 0.024636494
